charlie_chatbot/data.pth (torch_old, 6045 bytes, 6 tensors)

l1.weight f4 [9, 77]
00000000: dec0 193f b87b 04be eaa8 c3be 5139 58be
00000010: 2a84 ff3d 74b3 71be 6cfe 46be e251 9f3e
00000020: 3831 c13e 825c 833e 38a7 f7bd 9120 713f
00000030: 44b7 4bbd 2b43 b73e 0136 47be 2418 d7be
00000040: c33d 97be 3ef9 36be 4684 9c3e e776 a83e
00000050: b721 9e3e 6c5f 453f af27 debe 66f0 35be
00000060: 4577 cb3e 096c 933e 9054 ecbd 4df2 dabe
00000070: a46e 783e 3f65 23be 6cd1 a53e b818 753f
00000080: 275f 92bd 87bc 71be 549a 103f e25d 983d
00000090: 0ce8 dc3e 7936 053f 95dd 553e b8a1 5b3e
000000a0: aaf5 66be e636 7bbe d679 21bf 2785 aebd
000000b0: 2070 2abf c319 18bf f8f1 3ebe 006f 2c3f
000000c0: df98 c73e 6578 afbc 7ebe 893e 6e05 3ebe
000000d0: fa7c c0be 5c3c abbe f9ad aabd 021d 4f3c
000000e0: 0146 fa3e e8b9 983e 6a27 fb3e 8cd3 0fbf
000000f0: cb28 2d3d 0283 1b3f 6aaa 93be 8d8d 5cbe
00000100: eba1 703f a606 013f 21d2 04be 03e6 f23e
00000110: 1a0f 6dbd 929a fbbc 0fb9 10bd b9d8 813e
00000120: 10db 71be bab3 9d3e de35 bd3e 5b0a 013f
00000130: d288 0c3f 5217 d93e 11e6 483e 7d63 5bbe
00000140: 9862 093e 52bb 28be c607 02be 5f02 383f
00000150: 57d9 08be 136a 903e fffb df3e 4eac 2b3f
00000160: e1a0 303f 1a37 753e a41e 04bf 9356 5a3f
00000170: 365a 3d3f 0583 173f ae4c 1e3f a5f9 1abe
00000180: 8c55 35bd c282 9cbe a6e6 94be fbe1 e6bc
00000190: 31de 0a3f 2e99 f3be 13a3 8dbe bd67 2e3f
000001a0: e92d 14bf 2d2a a9be 9874 f8bd 2d76 dd3e
000001b0: e753 fa3e 9448 103f 32e9 2dbe 2345 113f
000001c0: 98ba ad3e e3a1 1f3f 2491 263f 38d6 b13e
000001d0: 6877 aa3e 981d 0d3f 04f5 403f 45e9 953e
000001e0: 3278 fabd 4165 c0be 11d7 a6be fd4d 0f3f
000001f0: 082e c63e aad3 9ebe b4cb 90bd feeb 783e
00000200: 6552 213f 49af 69be d3be 1a3f 15b2 1e3f
00000210: f2ba ca3d cc31 f6be 656f e3bc 62b2 a8be
00000220: e182 38bf e8dd eebe 48a1 a23e 6888 9cbe
00000230: 6843 ccbd e594 043f 0d1e e03d 613b f0bd
00000240: 0584 e33e b562 2b3f f526 313f 313c e23e
00000250: 4a06 0bbe 41b4 13be dd8f 073f e61c 05bf
00000260: 00e0 94be 15ab 0c3e e0d5 7dbe 2a3c 213f
00000270: 3ba2 3d3f 6a7b 3c3f 4aea f23e 74bf e43e
00000280: dae1 d4be c33c 85ba 1fdb aebe a052 69be
00000290: 6fd9 70be 83ec 4e3f c7d5 b43e 1e55 bebe
000002a0: 5e53 dabe 0808 98be dd56 dabe b446 91be
000002b0: 8b96 62bd e89f 933e a0ac e1be fcf8 473f
000002c0: c239 7d3e 22e4 02be e204 26be 6f55 bdbe
000002d0: 8bb2 99be bf1b 3e3f 0d2a d9bd a9a4 c93e
000002e0: 1479 0ebf 1cf1 1a3f 1f50 0ebe 16d1 ce3e
000002f0: ec4d dabe 43ae f33d e953 dabe c050 dabe
00000300: 1141 a4be b620 743e a4bb abbe 8fdd 00bf
00000310: fc04 d53e e628 ba3e 89e1 eb3e 05d9 c13e
00000320: f95b a3be b460 053f d922 18bd 84c9 9e3e
00000330: acad 80be ac0e 16be 276a b23e 8d49 303e
00000340: 7742 ddbd db1c 3c3f 12c9 f9bd 06c2 0ebd
00000350: ee8d 9b3e 20e4 223f 4a84 3c3f 5bc8 fa3e
00000360: 85d7 933e 3405 f43e b357 dabe dd89 94be
00000370: cabe 463e 8b64 cdbe 57f2 26be aa53 c6bd
00000380: 8351 2d3e 4f87 c43e a51d d23e b44e ecbc
00000390: b62c 37be f474 163f cc18 053e f529 8d3e
000003a0: ed65 82be b5b7 8abe a5e0 c1be 2697 873e
000003b0: 7703 67be 1c98 fbbe aa02 9a3e f339 0c3f
000003c0: 6fa7 e83e 2474 9cbd a9ce 40bf b3f9 f7bd
000003d0: c220 ca3e 8dd0 01bf 539f c7be 152f edbe
000003e0: 2070 b33b b33b ad3e 0495 b03e 3a28 9c3e
000003f0: 3247 2e3e 57d4 3d3d ab19 1ebd 8a8b 0a3f
0.60059917 -0.1293782 -0.3821481 -0.21115614 0.1247638 -0.23603612 -0.19432992 0.3111716
0.37732863 0.25656515 -0.12092441 0.9419032 -0.049735323 0.35793433 -0.19454195 -0.42010605
-0.29539308 -0.17868516 0.30569667 0.32903215 0.30885097 0.7709873 -0.4338965 -0.17767486
0.39739433 0.28793362 -0.115395665 -0.42762986 0.24260956 -0.15956591 0.3238634 0.9574084
-0.07147055 -0.23607074 0.56485486 0.07439782 0.43145788 0.52036244 0.20885308 0.2144841
-0.22554651 -0.24532661 -0.6307653 -0.085214905 -0.6657734 -0.5941431 -0.18646991 0.6735687
0.3898382 -0.021419713 0.26903147 -0.18556759 -0.3759535 -0.33444488 -0.08333964 0.012641193
0.48881534 0.29829335 0.49053508 -0.5618217 0.04227523 0.6074678 -0.28840953 -0.21538372
0.9399707 0.5040077 -0.12970783 0.4744111 -0.05787573 -0.030713353 -0.035332736 0.2536066
-0.23618722 0.30801183 0.3695516 0.50406426 0.5489627 0.42400604 0.19619013 -0.2142467
0.13416517 -0.16477707 -0.12698278 0.7187862 -0.13364159 0.28205928 0.43746945 0.6705979
0.6899548 0.23946801 -0.51609254 0.8528835 0.73965776 0.59184295 0.61835754 -0.15134294
-0.044271037 -0.3056851 -0.2908222 -0.028183928 0.5424529 -0.47577804 -0.27663478 0.6812704
-0.57882553 -0.3303999 -0.121316135 0.43254223 0.48892137 0.56360745 -0.16983488 0.5674612
0.33931422 0.62356395 0.65065217 0.34733748 0.33294225 0.5512328 0.75373864 0.29279533
-0.12229957 -0.3757725 -0.32585958 0.55978376 0.38706994 -0.31020862 -0.07070103 0.24308774
0.6301635 -0.22820772 0.60447425 0.6199048 0.09898938 -0.48084867 -0.027763078 -0.32948595
-0.72074705 -0.46653676 0.31763673 -0.3057282 -0.09973794 0.51789695 0.10943232 -0.11730076
0.4443666 0.6694749 0.6920007 0.44186547 -0.13576618 -0.1442423 0.5295389 -0.5199722
-0.29077148 0.13737138 -0.24788618 0.6298243 0.7407567 0.73625815 0.47444373 0.44677317
-0.4157856 -0.0010165203 -0.3415155 -0.22785425 -0.23520444 0.8082964 0.3531935 -0.37174314
-0.4264173 -0.29693627 -0.42644396 -0.28374255 -0.05531935 0.28832936 -0.44077015 0.78114295
0.24729064 -0.12782338 -0.162128 -0.36979243 -0.3001903 0.7426109 -0.10603724 0.39383438
-0.556535 0.60524154 -0.13897751 0.40393895 -0.42637575 0.11898472 -0.42642143 -0.42639732
-0.32080892 0.23840603 -0.33541596 -0.5033807 0.41605365 0.36359328 0.46070507 0.37860885
-0.31906107 0.5210068 -0.03714261 0.3101312 -0.251325 -0.14654034 0.34846613 0.17215557
-0.10803693 0.7348153 -0.12196554 -0.034853004 0.3038172 0.6362934 0.7363936 0.48980984
0.28875366 0.4766022 -0.42645034 -0.2901143 0.19408718 -0.4011577 -0.16303383 -0.096839264
0.16925626 0.38384482 0.41038242 -0.028846122 -0.1788815 0.58772206 0.1299774 0.27571073
-0.25468388 -0.27093282 -0.37866703 0.26482505 -0.22559915 -0.49139488 0.30080158 0.54775923
0.45440242 -0.076393396 -0.7531534 -0.12108173 0.39478117 -0.5070885 -0.38988742 -0.46324983
0.005476013 0.3383461 0.3448869 0.3049944 0.17019346 0.04634508 -0.038598698 0.5411917

l1.bias f4 [9]
00000000: 3ddb 843f b0d5 413f 2e51 da3e 1e85 4c3f
00000010: d611 003f 2957 293f fba1 d13e 449f 693f
00000020: ac65 4c3f
1.0379406 0.75716686 0.4264006 0.7989062 0.50027215 0.6614862 0.40943894 0.91258645
0.7984264

l2.weight f4 [9, 9]
00000000: 4bbb c0be de24 1b3f 0983 ae3f 1ddd 6dbf
00000010: e24e 853f 41c7 833f e66d ac3f e9de 843d
00000020: f42e ab3f 0988 753f 7744 d93d d623 823d
00000030: cb49 d23e 5815 cd3e 4485 5cbf d42e 69be
00000040: 68e4 2ebf 90ce 803f 50d2 4b3f eb5e 87bf
00000050: 7355 b33f d8d6 93be 9c4c 063f df52 723c
00000060: fa87 683e 8c98 9a3f ff31 9bbd 3bc4 b73f
00000070: 59ea 53bf 6186 903d 4da7 9e3f d742 f13e
00000080: 13a8 bd3f b73e dabe 4fc9 583f 0e0f 40bf
00000090: 150a 973f ddd6 d13f e144 47bf e662 5e3e
000000a0: 21fd 53bf 7d1f 823f 3686 493f 2459 22bf
000000b0: e3cb 8ebe 1105 3d3f f887 253f 1eff 32bf
000000c0: de57 8b3f 4aea e03f 6a8c a7bf af44 7abe
000000d0: 8690 553f 496d a83e a65d c83e 64e7 643f
000000e0: 9a84 193f c784 93bf 1da0 2ebf 0dd6 27bf
000000f0: 0105 11bf a557 573f bdc8 833f cc5a 6a3f
00000100: 76f7 a4bd 52a4 963d 8cbe 853f 6200 05bf
00000110: 0bd5 de3c d442 0ebf e9cc 8e3f ba7e a5be
00000120: b455 91be e886 193f 0b19 29bd 1842 593f
00000130: 98d7 83bf 98c0 6a3f da5b 8ebf f74d 9b3e
00000140: a5ee 7c3f
-0.37642893 0.6060313 1.3633739 -0.9291552 1.0414698 1.0295182 1.3471038 0.06487829
1.3373704 0.959107 0.10608762 0.063544914 0.41071925 0.40055346 -0.8614085 -0.2277177
-0.6831727 1.0063038 0.79617786 -1.0575842 1.4010452 -0.2887485 0.52460647 0.014790266
0.22708121 1.2077804 -0.075778954 1.435676 -0.8277946 0.07056881 1.2394806 0.47121307
1.4816917 -0.42625973 0.8468217 -0.7502297 1.1799952 1.6393696 -0.77839476 0.21717414
-0.8280812 1.016586 0.78720415 -0.6341727 -0.27889928 0.73835856 0.64660597 -0.6992053
1.088619 1.7571499 -1.3089726 -0.24440263 0.8342365 0.32895878 0.39133948 0.89415574
0.5996796 -1.1524895 -0.68213063 -0.6556099 -0.5664826 0.8411811 1.0295635 0.91544795
-0.08055012 0.0735556 1.0448775 -0.5195371 0.027201196 -0.5557072 1.1156284 -0.32323247
-0.283857 0.59971476 -0.04128365 0.84866476 -1.0300169 0.91700125 -1.1121781 0.3033292
0.9880164

l2.bias f4 [9]
00000000: f71f e83d 58ad 473f 6708 213e aaa4 823e
00000010: a3bd 583f 873d 3d3f d3fd 0c3f 12b6 103f
00000020: 72e0 323f
0.11334222 0.77998877 0.15725861 0.25516254 0.8466436 0.7392201 0.55074805 0.5652782
0.69873726

l3.weight f4 [15, 9]
00000000: c202 32bf e024 863e cb58 b8bf d7ed 93bf
00000010: cc1d 3b3e 74b1 f03e c00e 7c3f 9e7c b03e
00000020: 0fa2 cc3e 9d04 773e 26cb 83bf ed25 b13e
00000030: 17cd 9ebe 1510 953e 2279 31bf bc76 5bbf
00000040: fd1e 80bf 3027 50bf 55da 1e3e cb21 cd3e
00000050: ec88 b5be 113a 6fbf fec8 a3bf 23c9 42bf
00000060: 3314 0c3f 086d 8fbf 4f39 323f 0958 24be
00000070: 6e90 9dbe 4424 293f 11d7 2d3f 6f55 9fbf
00000080: 6b19 153e 2b74 eebe 97fa 5c3e a981 aebf
00000090: 78c8 bb3e 7a7f 443e 1234 313f 0400 82bf
000000a0: 0b98 96bf 53d5 73bf dec5 aebf a9b7 3abf
000000b0: 8c45 22bf d473 02be 55fa 16bf 026d 813e
000000c0: 8367 a33e e669 abbf df20 1cbf d25a 5cbe
000000d0: 651f 783d 4c5a 133f ab2f e9be b704 943b
000000e0: 988e c13e 2015 343e 77ed ec3e 047c 3abf
000000f0: c15f ed3e a9fe ab3e 0e28 2ebf c0b3 f7bf
00000100: fec7 06bd 1b08 93bf a451 013f 0796 393f
00000110: c668 e03d d22f 86bf 5d23 f43e 7d2d 463f
00000120: 6aa0 8dbc 0ff6 133e 2b45 11bf 61da 433b
00000130: fafd f23d 7ca8 7dbe e9f5 aebf d2f1 78be
00000140: 58d3 013f 353d ddbf 3d11 3bbe b06c e33e
00000150: cf81 383f 0b74 51bf d5e0 543f 1da5 57bf
00000160: c6f7 693f 9267 9bbe 626a 473e be2c 813d
00000170: 07b3 85bf b09a a8bf 70ec dc3e 574e e23e
00000180: 32b7 32bf eb2f 3dbf d47a 9bbf 2f55 a9bd
00000190: 6bcc cb3e f869 223f df4d 06bf 2877 9ebf
000001a0: f898 a83e e5b1 f03e d46e 76bf 713d 79bf
000001b0: eff4 b9be 6054 9abf 2a53 52bf 67e0 7fbf
000001c0: dc45 353f 54bb 66bf 09fc f63e 18e0 46bf
000001d0: ca25 db3e 600e 3dbf 029e 403f 5407 0bbf
000001e0: b31e ae3e 0a7c 023f 0926 1e3f 3a8f bcbf
000001f0: 668f febd 4690 bebf 1ab9 153f 279e 9fbf
00000200: 3cda c8bf 4376 b0bf 7e2a c13e fda8 97bf
00000210: 7e80 01bf dcfb 7ebe 0653 15bf
-0.6953546 0.26200008 -1.4402097 -1.1556958 0.18273085 0.47010386 0.98460007 0.34470075
0.3996739 0.24122854 -1.0296371 0.34599248 -0.31015846 0.29113832 -0.6932546 -0.8572805
-1.0009457 -0.81309795 0.15512975 0.40064844 -0.35456026 -0.9344798 -1.2795713 -0.7608816
0.5471832 -1.1205149 0.69618696 -0.16049208 -0.30774254 0.6607096 0.6790629 -1.2447947
0.14560477 -0.46573004 0.21579967 -1.3633319 0.36676383 0.19189253 0.6922008 -1.0156255
-1.176515 -0.9524738 -1.3654134 -0.72936493 -0.6338737 -0.12739497 -0.58975726 0.2527848
0.3191491 -1.3391693 -0.6098766 -0.2151902 0.060576815 0.5755966 -0.4554418 0.0045171636
0.37804103 0.17586184 0.4627492 -0.7284548 0.46362117 0.33592728 -0.6802987 -1.935173
-0.03290557 -1.1486849 0.505152 0.7249455 0.10957484 -1.0483344 0.4768323 0.7741316
-0.017288405 0.14449333 -0.56746167 0.0029884803 0.118648484 -0.24771303 -1.3668796 -0.24310997
0.5071311 -1.7284304 -0.18268295 0.4441886 0.7207307 -0.8181769 0.83155566 -0.8423632
0.913937 -0.30352455 0.19474176 0.06307362 -1.044526 -1.3172207 0.43149137 0.44200394
-0.69810784 -0.7390124 -1.2146859 -0.082682006 0.39804396 0.63442945 -0.5246257 -1.2380114
0.32929206 0.47010723 -0.9626286 -0.9735938 -0.36319682 -1.2056999 -0.8215815 -0.99951786
0.7080972 -0.9012959 0.48239163 -0.7768569 0.42802268 -0.7385006 0.752411 -0.54308057
0.34007797 0.5097052 0.6177679 -1.4731209 -0.12429695 -1.4887779 0.5848557 -1.2470139
-1.56916 -1.3786091 0.3772773 -1.1848446 -0.5058669 -0.24900764 -0.5832981

l3.bias f4 [15]
00000000: 9b76 ce3d 0940 89be abf2 143d 5fe7 b3be
00000010: 2f3e 01bd e0c7 a8be 7450 fcbd 2fed 093e
00000020: e046 dfbc 4b31 d03d 2135 ae3e 990a 36be
00000030: bc21 393e 09cd d9bd 95ec 48be
0.10081216 -0.26806667 0.03636424 -0.3513746 -0.031553444 -0.32964993 -0.12320033 0.13469385
-0.027255476 0.10165652 0.3402491 -0.1777748 0.18079275 -0.106348105 -0.19621499
