charlie_chatbot/data2.pth (torch_old, 5298 bytes, 6 tensors)

l1.weight f4 [9, 72]
000000 7f 99 c3 be 97 c9 c3 be 2a cc 74 be 71 c0 c3 be
       -0.38203046 -0.38239738 -0.23906007 -0.3823276
000010 75 05 c4 be 38 e5 c3 be 8b a0 c3 be 09 68 d9 3e
       -0.38285413 -0.38260818 -0.38208422 0.42462185
000020 c0 e1 fa bd b5 f9 a3 ba 23 5f 1a 3f 64 f4 18 bd
       -0.1225009 -0.0012510332 0.6030142 -0.037342444
000030 35 7d c3 be 9c 06 6d be 5f 81 c3 be bf 79 e3 3c
       -0.38181463 -0.23147053 -0.3818464 0.027768014
000040 42 d2 1d 3e 98 50 21 3f 73 a5 c3 be 9b a8 44 3f
       0.15412238 0.630136 -0.38212165 0.7681977
000050 c4 b4 c3 be 89 cf e7 bc 13 af 3d 3f 92 98 14 3f
       -0.3822385 -0.028297203 0.7409527 0.58045304
000060 17 ce c3 be 89 a5 c3 be dc 0c 21 3f 10 2b 80 3d
       -0.38243172 -0.3821223 0.62910247 0.062582135
000070 1c ab 49 3f 4a ca 31 3f 58 70 ba 3d 1e c5 c3 be
       0.7877672 0.69449294 0.09103459 -0.38236326
000080 75 d9 c3 be 20 83 c3 be 08 0c 85 be 73 09 c4 be
       -0.38251844 -0.38185978 -0.25985742 -0.3828846
000090 ad f5 5b 3f a3 f5 11 3f b6 d9 51 be 2d 5a 35 be
       0.85921746 0.57015437 -0.20493206 -0.1771018
0000a0 77 ba c3 be 43 a0 e6 3d df f2 c3 be 0a fc 33 be
       -0.382282 0.11261036 -0.38271233 -0.17576614
0000b0 d3 8b c3 be f4 c4 c3 be a7 69 c0 bd 77 72 10 3f
       -0.38192615 -0.382362 -0.093951516 0.5642466
0000c0 63 8f c3 be 85 78 f1 3e da 50 1c 3f 00 31 d6 bd
       -0.38195333 0.47162262 0.6106087 -0.10458565
0000d0 59 b2 c3 be 12 95 57 3d 89 97 95 be 3b 82 7e 3b
       -0.38222006 0.0526324 -0.29217175 0.0038834948
0000e0 d7 b8 c3 be 0c dc c3 be de 4b 2a 3f f5 81 61 3f
       -0.3822696 -0.3825382 0.66522014 0.88088924
0000f0 27 8e c3 be 1e 8b c3 be 70 96 ed bd 55 84 86 be
       -0.3819439 -0.38192075 -0.11600959 -0.26272836
000100 58 ba c3 be fc a1 d1 be 01 b3 c3 be 94 30 c4 be
       -0.38228106 -0.40943897 -0.38222507 -0.38318312
000110 ab 89 c3 be ad 85 c3 be 22 48 d5 be b8 98 c3 be
       -0.3819097 -0.38187924 -0.41656595 -0.38202453
000120 34 05 51 3e 7f 0b e7 3e 35 ba 01 3f cb d3 c5 3e
       0.20412141 0.45125958 0.50674754 0.38638148
000130 55 4b 80 be c1 47 8d 3e 88 42 80 be e9 31 50 3f
       -0.25057474 0.27593806 -0.2505076 0.81326157
000140 e4 c2 ac 3e 78 09 ea bd 7d 7a ef 3e 1a a0 cb 3e
       0.3374244 -0.11427587 0.4677314 0.39770585
000150 ee 71 91 3e e4 2b 66 3e 96 4c 80 be 8d 50 9f 3e
       0.28407234 0.2247768 -0.2505843 0.31116143
000160 b0 b6 59 bc 0b 98 be 3e 46 44 80 be 88 b9 c9 3e
       -0.013288185 0.37225375 -0.25052088 0.39399362
000170 db 45 80 be 7c e9 b4 3e cf 33 8b 3e e6 d3 88 3e
       -0.25053295 0.35334384 0.27187964 0.26724166
000180 ef bc 50 3e d6 80 95 3e 17 74 cb 3e 09 b7 02 3f
       0.20384572 0.29199857 0.39737007 0.5106054
000190 c3 10 00 3f a1 51 d6 3e 2a 6e 75 bd 7c 31 80 be
       0.50025576 0.41859153 -0.059919514 -0.25037754
0001a0 21 38 b2 3e 3c 3f 80 be 00 5c 9a 3e b4 58 80 be
       0.34808448 -0.25048244 0.30148315 -0.25067675
0001b0 58 8b 92 3e c5 45 a7 3e 4e 19 1f be be 64 15 3f
       0.28621936 0.32670417 -0.15536997 0.58356845
0001c0 27 f2 c7 3e 8e 2b 4c be 38 51 80 be eb 36 a8 bd
       0.39051935 -0.1993849 -0.25061965 -0.082136
0001d0 13 ce d6 3e aa 2a 9e 3e a9 5b a8 bd 3a 82 c3 3e
       0.41954097 0.30891925 -0.08220608 0.38185292
0001e0 98 64 80 be d7 57 84 3e 77 93 d2 3e 9c cb b4 3e
       -0.25076747 0.25848266 0.41128132 0.35311592
0001f0 f1 46 80 be e5 88 12 3f be bb 19 3f c6 a6 84 bd
       -0.25054124 0.57240134 0.60052097 -0.06477122
000200 5f 50 6b 3e 03 8f 8b 3e 08 df e9 3e e3 7c 60 3e
       0.22979878 0.27257547 0.45677972 0.2192264
000210 74 2d 80 be f9 4d 80 be 69 e1 01 3f 55 1b 14 3f
       -0.25034678 -0.25059488 0.50734574 0.57854205
000220 98 48 80 be fc 80 0f bf 4c 9d 92 3e 90 50 80 be
       -0.25055385 -0.5605619 0.28635633 -0.25061464
000230 20 36 80 be 3c 13 c6 3e 0a b2 05 bf a1 02 84 3e
       -0.25041294 0.3868655 -0.5222479 0.25783256
000240 bb df 94 3e 92 bb 10 3f e7 0a c3 be 28 36 b4 3e
       0.29076943 0.5653621 -0.38094255 0.35197568
000250 c8 e0 08 3f ed 5f bc 3e 67 d6 e0 3e d1 ff eb bd
       0.5346799 0.36791936 0.43913576 -0.115234025
000260 38 ec a7 3e 87 42 b0 3e e5 0b 01 bf 56 06 b1 be
       0.32797408 0.34425756 -0.50408775 -0.34575146
000270 68 0d dc 3e ba 1f e5 bb ac 4d 09 3f a9 b1 14 3c
       0.42978978 -0.0069923075 0.5363414 0.009075561
000280 7c aa 3f be 02 15 01 bf dd 0b f6 3e 80 0e 01 bf
       -0.18717378 -0.5042268 0.48055926 -0.5041275
000290 09 d8 b5 3e 78 aa ae be 27 5c 07 3e 51 17 78 be
       0.35516384 -0.34114432 0.13218747 -0.24227645
0002a0 ba aa a8 3e be c7 f2 3e 50 ff 00 bf 14 74 a7 be
       0.32942754 0.47418016 -0.50389576 -0.32705748
0002b0 aa fe 00 bf d8 b1 87 3d a3 3c 57 be eb 1f ff 3e
       -0.50388587 0.06625718 -0.21019225 0.4982904
0002c0 fa 11 14 3f 53 b3 05 3f e3 fe 2f 3e cc 6e e8 3e
       0.5783993 0.5222675 0.17187075 0.4539703
0002d0 21 e8 7e 3c 1d 03 86 be 83 49 35 3e b9 f0 ae be
       0.0155582735 -0.2617425 0.17703824 -0.34168032
0002e0 5e 5a c3 3e 89 8c 0e 3e 5c 8a bc 3e 79 77 aa 3c
       0.38154882 0.13920797 0.3682431 0.020808922
0002f0 70 f7 cf 3e 23 90 fe 3e 49 b6 4a ba 1b 1a 01 bf
       0.40618467 0.49719343 -0.0007732851 -0.5043046
000300 7b 59 fc 3e 56 a4 bf bd cb 01 01 bf c6 c3 a8 be
       0.49287018 -0.093575165 -0.5039336 -0.32961863
000310 eb bb 01 3f 1e eb 8a be 92 41 95 be 39 2d 12 3e
       0.50677365 -0.27132505 -0.2915159 0.14275064
000320 6d 10 d3 3e 60 10 23 3f a1 06 01 bf 19 74 4f 3e
       0.4122347 0.6369686 -0.5040074 0.20259131
000330 13 c5 b2 3e 6b 02 11 3f 1e 20 a3 be a1 40 be be
       0.3491598 0.56644315 -0.3186044 -0.37158683
000340 95 bb d0 3e ca c9 0e 3f d1 ff d9 3e 40 a1 a9 3e
       0.40768114 0.55776656 0.42577985 0.33130836
000350 cd 6b 07 3f e3 fa c8 3e 64 f2 21 3f 64 65 e0 3e
       0.52898866 0.3925391 0.63260484 0.43827355
000360 c0 35 0c 3f 82 64 d2 3e ec e8 ad be 2d 0b 04 3f
       0.54769516 0.41092306 -0.33966768 0.5157955
000370 fe 95 dc 3e 3e 8b f4 3e fa 81 d1 3e f7 b0 1b be
       0.43083185 0.47762483 0.40919477 -0.15204225
000380 cd b0 51 3e 9b 0d 5a 3e 96 52 dc be 60 61 b2 be
       0.204776 0.21294253 -0.43031758 -0.34839916
000390 e7 0e f0 3e 47 48 dd be 6c aa 01 3f 10 f1 d0 bd
       0.4688637 -0.43219206 0.5065067 -0.10202229
0003a0 bf 7d 01 be 9f 5d dc be e1 80 c7 3e 77 47 dc be
       -0.12645625 -0.43040177 0.38965514 -0.43023273
0003b0 b9 79 16 3f 12 cd b4 be 2a 3a 04 3f 16 4f 02 be
       0.58779484 -0.35312706 0.5165125 -0.12725481
0003c0 5e 4a e9 3e 22 83 ee 3e 42 3e dc be fe 37 c0 be
       0.4556455 0.4658442 -0.4301625 -0.3754272
0003d0 cb 45 dc be 1e 66 24 3f 3a dd 88 bd 51 be 07 3f
       -0.43021998 0.6421832 -0.066828206 0.53024775
0003e0 2e 7c b4 3e b6 f9 11 3f 44 4e b0 3e 0e 7e 0c 3f
       0.35250992 0.57021654 0.34434712 0.54879844
0003f0 75 77 0e 3f 9f df 9a be e9 22 c8 3d e2 0c bf be
       0.55651027 -0.30248734 0.097722836 -0.37314516

l1.bias f4 [9]
000000 66 22 c3 3e d6 59 7f 3e 4f 02 01 3f ed 4f dc 3e
       0.3811218 0.24936613 0.5039415 0.4302973
000010 6f c8 27 3f 0b 2c 92 3e 70 40 cb 3e 51 96 a6 3e
       0.6554021 0.28549227 0.396976 0.32536557
000020 02 8f 8c 3e
       0.27452856

l2.weight f4 [9, 9]
000000 28 68 00 3e 6a 55 c8 3e e1 dc 81 3f ee ce 43 3f
       0.12539732 0.39127666 1.0145532 0.76487625
000010 f3 bd 70 bf d8 7f 3d 3f 91 cb 2b 3f 0a cb 4e be
       -0.9403984 0.740232 0.6710749 -0.20194641
000020 ee d5 24 3f a8 f5 fb be 6a 9a ce be e6 fe 59 3f
       0.6438893 -0.49210858 -0.40352184 0.8515457
000030 16 14 44 3f 88 17 93 3f 8f ef 1e be 08 16 e3 3e
       0.7659315 1.1491556 -0.15521072 0.44352746
000040 a5 a2 6c 3e 23 37 8f bf 81 28 02 bf 86 7c 61 3f
       0.23108919 -1.1188701 -0.50843054 0.8808063
000050 06 a0 45 be 87 0c fc be 9f f1 04 3e 99 a7 34 3f
       -0.19299325 -0.49228308 0.12982796 0.70568234
000060 4b d5 99 3f 7a f4 95 3f 10 21 12 3e af 65 a9 3c
       1.2018217 1.1715233 0.14270425 0.02067837
000070 ae 77 b5 3e 45 eb 0c 3f 6f 3b 86 3f 6d 1c 50 bf
       0.3544287 0.5504649 1.0486888 -0.81293374
000080 c2 49 2d 3f 85 92 d4 3e 78 dc b3 bd 50 41 6c 3f
       0.6769067 0.41518036 -0.087822855 0.9228716
000090 8b ca c0 bd 2c 6b a9 3e 9c 03 74 3f 8d 4c 9c 3f
       -0.09413632 0.33089578 0.9531801 1.2210861
0000a0 a5 8f 06 bf 53 fe c0 3f 1a 83 8a 3f f9 79 54 3e
       -0.52562934 1.5077614 1.0821259 0.20749654
0000b0 ce e2 6b be e7 80 5c bf 37 69 8f bf c2 c2 90 3f
       -0.23035738 -0.8613419 -1.1203984 1.1309435
0000c0 92 2d 94 3f ce e2 2b 3f 0e 4b 7c bf 08 9f 38 bf
       1.1576407 0.6714295 -0.98552024 -0.7211766
0000d0 9c cd 29 bf ca f7 68 bf 13 95 ce 3f eb 48 75 3f
       -0.6632936 -0.91003096 1.6139244 0.9581439
0000e0 28 df c7 be d3 7f 05 bf 37 ac 78 3f 34 8b 07 bf
       -0.39037442 -0.5214817 0.9713778 -0.5294678
0000f0 e8 b2 8b bf 1b c6 a4 3e d1 ee 49 3f 8c ea 0b bf
       -1.0913973 0.32182392 0.7888003 -0.54654765
000100 ac cf b5 3e 61 3e 22 3f 39 72 f2 3e 46 b7 46 3f
       0.35510004 0.6337643 0.4735277 0.77623403
000110 6e 2e 71 3f e1 4d 75 3f a1 e2 f8 3e 8c 01 71 bf
       0.9421147 0.9582196 0.48610404 -0.94142985
000120 93 05 f2 3f 86 24 82 3f e7 9c 37 bf 5a e0 74 bf
       1.8907951 1.0167396 -0.7172379 -0.95654833
000130 73 7d 98 3f 7e d9 5e be 58 15 9c be a9 9b 95 3e
       1.1913284 -0.21762654 -0.30485034 0.29220322
000140 8f 56 3c 3f
       0.7356958

l2.bias f4 [9]
000000 cf fa 6d 3e 68 75 92 3e fd 17 b5 3e cd 5f b4 3d
       0.23240207 0.286052 0.35369864 0.08807335
000010 dd 94 16 3f 18 d2 19 3f 3a 89 49 3f d5 fe 21 3c
       0.588209 0.600862 0.78725016 0.009887417
000020 9e 39 18 3f
       0.59462917

l3.weight f4 [5, 9]
000000 ec 70 1e 3f 16 03 68 bf fb a8 38 3f 1d 1e 2e 3f
       0.61891055 -0.9062971 0.72132844 0.680147
000010 7d 2e 18 3f cf 17 23 bf 00 91 b0 bf 91 1d cb 3d
       0.59445935 -0.63708204 -1.379425 0.09917749
000020 55 73 c0 bf ff c3 d5 bf 16 86 81 bf a6 5c b8 3e
       -1.5035197 -1.6700438 -1.0119045 0.36008185
000030 49 d9 a8 bf c0 ac bb bf e0 92 7d bf 90 62 86 3f
       -1.319131 -1.4662094 -0.9905224 1.0498829
000040 3a b6 ec bf d6 07 45 3f db 68 52 bf 28 be b6 3e
       -1.8493111 0.7696508 -0.82191247 0.35691953
000050 dd 47 68 3f 02 b9 83 bf 62 67 f8 bd f4 7e 1c bf
       0.90734655 -1.0290835 -0.12129094 -0.61131215
000060 ba 61 5f bc 94 6b ae 3e 10 73 60 3e 1f 60 06 bf
       -0.01363414 0.3406645 0.21918893 -0.5249042
000070 ad 11 37 3f 4d 24 78 bf 06 52 4a bf b6 3e 7e 3c
       0.71511346 -0.9693039 -0.7903141 0.015517881
000080 f6 ee 91 3f 18 12 07 be 1c 28 f3 3d 33 4f cb be
       1.140105 -0.13190496 0.11872885 -0.39708862
000090 34 fd c5 3e c7 68 a9 bf bc ac f9 be 38 67 d5 3e
       0.3866974 -1.32351 -0.48764598 0.41680312
0000a0 54 be c0 3e 97 99 f8 be 37 35 81 3e 45 b7 4e bf
       0.3764521 -0.4855468 0.25235912 -0.807484
0000b0 fb 29 eb 3d
       0.114826165

l3.bias f4 [5]
000000 af fc c8 bd 0e fb bc 3a 20 de 18 3e 0b 65 50 3e
       -0.098138206 0.0014418082 0.14928484 0.20351045
000010 97 20 07 3d
       0.032990064
